local_translate/models/sherpa-onnx-streaming-zipformer-en-2023-06-26/decoder-epoch-99-avg-1-chunk-16-left-128.int8.onnx (onnx, 540688 bytes, 4 tensors)

decoder.conv.weight f4 [512, 4, 2]
000000 2a d1 69 be 74 e8 84 3f cc 53 1f 3e 5e fc 0c 3e
       -0.22833696 1.0383439 0.1555931 0.13768145
000010 8f 93 6f bf 98 ef 7a bf 07 6c cc 3e f4 e7 14 bf
       -0.9358453 -0.9802184 0.39926168 -0.5816643
000020 6d 18 03 3d 89 19 15 bf 85 4d ff bc c4 e3 56 3d
       0.032005716 -0.5824209 -0.031164894 0.052463308
000030 d1 2d 97 bc e6 fe f7 be c6 25 c4 3d a6 98 aa bf
       -0.018454464 -0.4843666 0.09577517 -1.3327835
000040 74 f2 5b 3d 36 a6 6a bf 98 f3 18 be 09 29 c2 3f
       0.05369802 -0.9165987 -0.14936674 1.5168773
000050 2e dd 11 bf b7 38 e2 bc b4 6f 83 3f b7 dd 0e bf
       -0.5697812 -0.027614934 1.0268464 -0.5580706
000060 f0 28 c8 3a f2 80 79 3f 8b 18 ba 3f 86 e3 99 3f
       0.0015270989 0.9746238 1.453874 1.202256
000070 84 04 28 be 25 13 b8 3e 76 a1 8d be d5 bc 29 3e
       -0.16407973 0.35952106 -0.27662247 0.1657594
000080 d9 fe 05 bf e1 89 b2 3c d1 dc ab be 81 0e c1 3f
       -0.5234199 0.021794261 -0.33566907 1.5082551
000090 84 60 48 3f 94 21 06 3c 1c dc 34 3e 70 9d 8c be
       0.7827227 0.008186717 0.1766209 -0.27463865
0000a0 cf 88 63 bf 54 fc 88 bf 34 74 d6 bd 1a 35 30 3f
       -0.8888063 -1.0702004 -0.10471383 0.68831027
0000b0 12 9f a1 3d e0 85 5d 3f cf 08 4d bf 51 17 24 3f
       0.078916684 0.865324 -0.80091566 0.6409808
0000c0 b8 d7 cd be f4 b2 98 bf b2 20 98 be 5a 35 59 3f
       -0.40203643 -1.1929612 -0.29712445 0.84847033
0000d0 a9 be a0 be 44 92 55 3f ed ac 25 3f 80 81 94 ba
       -0.31395462 0.8342631 0.6471699 -0.0011330098
0000e0 39 bb 8e 3e 4b 16 7c 3e 27 3f 3e 3d 49 a2 19 3f
       0.27877215 0.24617879 0.046446946 0.6001325
0000f0 b9 fc a1 3f 55 6f 6f 3f 9b 7f 19 bf 3c 1f 82 3f
       1.265525 0.93529254 -0.59960335 1.0165782
000100 7c e8 69 bf 7c 01 03 3e 62 4f 8a be 80 a6 3e 3d
       -0.9137037 0.12793535 -0.2701369 0.046545506
000110 d0 d4 61 bf af 0f 03 c0 2f 74 a3 3e b5 d7 9f be
       -0.8821535 -2.0478323 0.3192458 -0.3121926
000120 c5 f5 29 bc a2 9d 65 3f 16 13 a3 3f 2e ea 7c 3d
       -0.010373537 0.89693654 1.27402 0.06174677
000130 ea 6d 88 bd ae 6d 9f bf 4a 6f 46 be 4f 6e 3a 3f
       -0.066615894 -1.2455347 -0.19378391 0.7282457
000140 65 44 b9 be 8c ce 46 be 5b 6c d9 3e 90 19 16 3d
       -0.36184993 -0.19414729 0.4246548 0.036645472
000150 54 20 50 be 9a 6d b3 3d 87 84 f3 3e e4 60 9e 3f
       -0.20324832 0.08761139 0.47562048 1.2373319
000160 ca a5 29 bf f9 24 d6 be 0c 3c 3d be 3e 28 68 3f
       -0.662686 -0.41825083 -0.18479937 0.90686405
000170 06 cb b5 be 16 96 9a bf e2 86 ce be ae cc 93 3f
       -0.35506457 -1.2077053 -0.40337282 1.1546838
000180 e8 93 12 3e b6 ca 82 be 34 ee 09 3f 9a b7 56 3d
       0.14314234 -0.2554528 0.53879094 0.05242119
000190 d2 a1 61 3f 1f ca 4e be 70 61 c4 bb 65 ad 92 3f
       0.88137543 -0.2019429 -0.005993061 1.1459166
0001a0 9a a1 a3 3f 1a 3c 89 3e ee 4c 66 3f 5d b8 9c 3e
       1.2783692 0.26803666 0.89961135 0.30609408
0001b0 b1 9d 4e bc 58 1e 20 bf cd 47 25 3f 24 4d e4 3f
       -0.012610839 -0.625463 0.64562684 1.7836041
0001c0 ca 52 9d be 09 c0 41 3f e8 7d 5c 3f 1f a7 33 3f
       -0.30727226 0.7568365 0.8612962 0.7017688
0001d0 72 47 d5 3c 8f 8f fe be b7 ed 89 3e fa 4a 32 bc
       0.026035044 -0.49718902 0.26939175 -0.010882134
0001e0 6a 2a 3c 3f 14 ce e4 3f fa 6e a3 be 2f df b0 be
       0.7350222 1.787539 -0.31920606 -0.34545276
0001f0 1c 28 6c 3f a4 09 d1 bd 4a bf 83 3f 1c 1d 21 3e
       0.922487 -0.10206917 1.0292752 0.1573376
000200 fa 64 3c bf 88 69 f6 be 16 c2 d4 3d 00 2c cb bf
       -0.7359158 -0.4812739 0.103885815 -1.5872803
000210 a2 4c af 3e a4 b7 27 be 7a e5 cc bd 1e 37 0c 3f
       0.34238154 -0.16378647 -0.10004707 0.547716
000220 93 24 da bd b8 a7 d4 3e 12 be 63 3d 21 be 9c bf
       -0.10651507 0.4153421 0.055601187 -1.2245523
000230 e4 5d 92 bf 30 93 10 3f 09 51 e1 3e 92 03 8f 3f
       -1.1434903 0.5647459 0.44007137 1.1172965
000240 ed 48 a7 be e2 ba 44 3f 14 ed 0d bd c9 f2 88 bf
       -0.32672825 0.7684766 -0.034649923 -1.0699092
000250 6c 3a 0f bd d9 93 01 bf dc f1 b0 3f c1 4f ea 3e
       -0.034967825 -0.5061622 1.382381 0.45763972
000260 6c 96 2a bf f6 e1 b9 3e 0f ee 9e bf 81 8d c3 bf
       -0.66635776 0.36305207 -1.24164 -1.5277559
000270 83 aa 42 be 21 de 52 bf 00 27 51 be 30 95 a9 be
       -0.19010358 -0.8237019 -0.20425034 -0.33121634
000280 7a 8f 04 3e fa cb 17 bf 27 7d 26 be 90 6d 79 be
       0.12945357 -0.5929562 -0.1625868 -0.24358201
000290 03 1c c6 bd 13 fe 42 3f 14 0a 3c bf 48 87 0e bf
       -0.096733116 0.76168936 -0.7345288 -0.5567517
0002a0 41 44 e7 3f be a8 49 3f 18 a9 d4 bc 07 a1 02 c0
       1.8067704 0.78773105 -0.025959536 -2.0410783
0002b0 47 72 cc 3f 84 25 d5 3f cc f4 b6 bc 77 21 83 be
       1.5972375 1.6652074 -0.022333525 -0.2561147
0002c0 52 3a d4 bc 69 18 11 3f 57 8b 91 3c 94 80 c4 bc
       -0.025906716 0.5667787 0.017766638 -0.023987092
0002d0 25 ac 2a 3f 56 d8 d0 bd a9 a3 d4 3e cc be a3 bf
       0.6666892 -0.10197513 0.41531113 -1.2792602
0002e0 6f e8 36 be cb 2d 2c bf ce 28 18 3f c9 02 37 bf
       -0.17862104 -0.67257375 0.59437263 -0.71488625
0002f0 37 ac dd 3f 20 df f8 3f a9 10 42 bf d0 bf 1c 3e
       1.7318181 1.9443092 -0.7580667 0.15307546
000300 a6 a5 c0 3f 76 0f af be 78 a1 eb be 56 67 06 c0
       1.5050552 -0.34191483 -0.46021628 -2.1000571
000310 56 59 04 40 75 bb fb 3f 2c 00 82 bf d4 b8 90 bf
       2.0679526 1.9666582 -1.0156302 -1.1306405
000320 38 d3 03 3c 06 29 d7 bd 9a ae cd 3e e7 26 8a be
       0.008045964 -0.105058715 0.40172273 -0.26982805
000330 08 9c 7c 3f c4 54 0a 40 09 e6 53 bf 8c 85 02 3f
       0.98675585 2.1614237 -0.8277288 0.50985026
000340 1b 7d d4 3f a8 6a b7 3e 8b b5 ab be 11 2d a1 bf
       1.6600679 0.3582356 -0.33536944 -1.2591878
000350 64 de 9e be 19 22 8a 3e da 8c 90 3d 02 c6 84 bf
       -0.31029046 0.2697914 0.07058115 -1.0372927
000360 30 bf cc 3f e4 aa 59 3f 6c c1 e0 3e 50 2a d4 bf
       1.5995846 0.85026383 0.4389757 -1.6575413
000370 3d be 52 3f 5c 0f 66 3f 6e 41 04 3e 7a 5b 1e 3f
       0.8232153 0.89867187 0.12915584 0.6185833
000380 88 cc ee 3d 5c 3e f3 3f 05 9d 53 3f 75 34 df 3e
       0.11660105 1.9003406 0.8266147 0.4359471
000390 82 fb 71 be 72 60 00 be 60 52 50 bf dc fd 77 bc
       -0.23631099 -0.12536791 -0.81375694 -0.015136208
0003a0 7d 91 07 3f 24 06 b7 3d 7b 29 8c be a8 a4 d7 3d
       0.5295637 0.08936718 -0.27375397 0.105294526
0003b0 5e da c2 be 6e 1f 21 3f 6f a1 36 bf ba 65 b9 bf
       -0.38057226 0.6293858 -0.7134008 -1.448417
0003c0 5e 22 ec 3e 10 b9 83 bd 51 87 1b be 6b b8 bb 3f
       0.4611997 -0.06431782 -0.15188338 1.4665655
0003d0 ac 3f 79 3f a0 a5 a2 3d 67 45 00 bd b4 76 0d bf
       0.9736278 0.07941747 -0.031316187 -0.5525925
0003e0 0c bb 43 3d e3 25 76 3e 14 c2 28 3e 82 e2 8b 3f
       0.047785804 0.2403789 0.16480285 1.09285
0003f0 84 70 b8 be 7f b4 cf 3e 16 92 80 bd 9e 2e ee 3e
       -0.36023343 0.40567395 -0.06277864 0.4651994

decoder_proj.bias f4 [512]
000000 bc 3b 71 bd 7e bc b1 3e 76 f8 b9 bc 5b 79 93 bd
       -0.058894858 0.3471412 -0.022701483 -0.07200881
000010 fe dd a3 3c 85 d9 a4 3d 74 54 f4 3d 33 c8 0a be
       0.020003315 0.08049301 0.11930171 -0.13552932
000020 6a bd 57 bd 8a a3 91 3d cb a1 87 3c f7 3b 79 3b
       -0.052670874 0.07111271 0.016556641 0.0038030127
000030 c2 d4 9c bd a8 51 ce bd d6 be 4c 3d 54 1d 24 3d
       -0.07657768 -0.100741684 0.049986683 0.040067032
000040 3d 11 31 be 6d cb 80 3d 88 ab 69 be b9 71 74 3d
       -0.17291732 0.062888004 -0.2281934 0.059678767
000050 2a 70 14 3e 10 20 86 bc 5e d2 3b be 34 75 92 bd
       0.14495912 -0.01637271 -0.18341967 -0.07151261
000060 cf cb f6 3e 42 b3 f2 be fb 88 e4 3d 09 9a 0f 3e
       0.4820237 -0.47402388 0.111589395 0.14023603
000070 17 58 32 3f 54 17 bd 3d 8f 6b 79 3d 47 1c cb bd
       0.69665664 0.09232965 0.06089359 -0.09917503
000080 fd 80 00 3e 00 4e 3c be 99 52 88 bd a8 58 d8 3d
       0.12549205 -0.1838913 -0.06656379 0.10563785
000090 f0 db 95 bb 57 00 15 be d7 4f 20 bd ed a2 fa bd
       -0.0045733377 -0.14550911 -0.03913864 -0.12238107
0000a0 49 82 e4 3c 7a 5b f5 bd 3a 22 75 bd 7f 24 23 3e
       0.027894156 -0.119803384 -0.059847094 0.15931891
0000b0 de 3a 97 3e b0 7a fb bd e3 80 71 3d 16 66 28 3e
       0.295371 -0.1227926 0.058960807 0.16445193
0000c0 ca 5b 28 bf aa ed 5b 3e 94 48 26 3f 28 79 e1 3d
       -0.6576506 0.2147738 0.64954495 0.11009437
0000d0 89 b1 0c 3e 4e 05 8e 3c 9f 6b 9a bd e2 da e0 3e
       0.137396 0.017336514 -0.07540058 0.43916994
0000e0 da fe 4d 3d 9b d6 e7 be 4b 8d ae bd 16 3f 94 3c
       0.050291874 -0.45280918 -0.08523043 0.018096488
0000f0 49 81 8a bd ee 6a d0 bd e4 56 c8 be d0 a9 a7 3e
       -0.067629404 -0.10176645 -0.39128792 0.32746744
000100 b8 2f 4e 3f bc 53 e7 be fc 53 5c be d7 ee 8a 3d
       0.80541563 -0.45181072 -0.21516412 0.06783836
000110 a2 88 a4 bd 9c ba 59 be c8 41 f9 bc e2 fe d6 3c
       -0.08033873 -0.21262592 -0.030426875 0.026244584
000120 22 34 1e be 0d 85 a9 be ae e0 d1 3c 4a 4e 94 bc
       -0.15449575 -0.33109322 0.025619831 -0.018103737
000130 b7 30 7d 3d e0 df 6c bd fc 3c bf bd 32 0c 1b 3f
       0.061814036 -0.05783069 -0.09337804 0.60565484
000140 28 48 5a 3e cd 9e 82 be de 96 02 bf 73 87 d7 3d
       0.21316588 -0.2551178 -0.51011455 0.10523882
000150 2e 0d b1 bc 17 0b 83 be 0f a4 f5 3e f8 83 99 be
       -0.02161273 -0.25594398 0.4797673 -0.29983497
000160 12 83 e9 3c a4 39 de bd f1 ea 0c 3f 87 b2 4b 3d
       0.028504882 -0.10850838 0.5504599 0.049730804
000170 b0 0f 47 be 6c b0 b1 bd 5d 8c 4a bd 1b f0 b3 3e
       -0.19439578 -0.08676228 -0.049450267 0.35144123
000180 82 e2 11 3f c2 73 25 3d 12 10 37 bf e2 8d 3c bd
       0.5698625 0.0403936 -0.71508896 -0.046033747
000190 14 ed 0c 3f 78 76 ae 3e b2 60 e4 3e 70 10 0a 3d
       0.5504925 0.3407476 0.44605023 0.033707082
0001a0 9c 79 03 3e 47 7f dc be 9a ff 03 bc 36 2a 03 bf
       0.12839359 -0.43065855 -0.008056546 -0.51236284
0001b0 1c 4f a7 bd a7 01 3a 3f ce d4 2e bf 4d e7 5b be
       -0.08169386 0.7265877 -0.68293464 -0.21474953
0001c0 5d 72 3d bd ee b9 26 3e 35 54 f2 be b5 d3 54 3e
       -0.046251643 0.16281864 -0.4732987 0.20783885
0001d0 ef 66 58 3e 96 2e 37 3e e3 56 df 3d 32 80 a7 3d
       0.21133016 0.17888865 0.10905244 0.08178748
0001e0 f4 92 87 3b b4 c0 b7 3d b3 46 67 3d e2 2b f8 bc
       0.004137391 0.08972302 0.05646391 -0.030294362
0001f0 8e 91 0e bf 4f 5a a7 3c 74 92 a6 be 36 35 49 be
       -0.5569085 0.020428805 -0.3253361 -0.19649205
000200 9e bf 35 bd 82 6f 09 3d 8a 41 86 3e 2f 76 89 be
       -0.044372194 0.033553608 0.26221877 -0.2684798
000210 8f c9 93 bd a9 15 86 be ab 53 19 bd a3 db de 3e
       -0.072161786 -0.261884 -0.037433308 0.43526945
000220 28 09 5d bd 48 ae 17 be 30 11 a0 3e ac e5 43 3e
       -0.05396381 -0.14812577 0.31263113 0.19130582
000230 12 2b bb 3d c9 73 fa bb c0 ce 6d bd 7c 51 a4 be
       0.091390744 -0.007643197 -0.0580585 -0.32093418
000240 dd 39 7b bd 6c 6a 70 3d 16 d8 12 be 70 06 85 bc
       -0.06133448 0.05869524 -0.14340243 -0.016238421
000250 de 7e c7 bd 62 c6 9e 3d fe ad e9 3d cf 02 86 bd
       -0.09740995 0.07752682 0.114101395 -0.065435044
000260 87 cb 7b bd 54 3a 1e bb d9 2b 1a 3d 08 1e fe be
       -0.061473396 -0.0024143653 0.037639473 -0.49632287
000270 c9 39 11 bf f6 b1 47 3e fb 92 8f 3b ae ec 27 be
       -0.567288 0.1950148 0.004381535 -0.1639888
000280 f4 97 ba bc 9f a2 25 bf 54 cb 32 bb 88 da dc 3d
       -0.022777535 -0.64701265 -0.0027281838 0.10783869
000290 44 c2 84 3e 0e 68 bf 3d e2 f5 e6 bd 3d 42 c7 be
       0.25929463 0.09346019 -0.11277367 -0.38917723
0002a0 d7 03 2c 3d ca d1 45 bd d4 77 91 bd af 14 3d be
       0.04199585 -0.048295774 -0.071029335 -0.18464921
0002b0 e5 3b 13 3d f8 57 7a 3a 46 42 86 3c 04 ee 1f 3d
       0.03594579 0.00095498515 0.016389024 0.03904535
0002c0 f6 62 13 bf 85 cc ed bd 04 af 33 3f 1b e1 13 3e
       -0.5757288 -0.11611275 0.7018893 0.1444134
0002d0 3a cf de 3e 24 08 de 3e c5 d4 ac 3c 11 67 81 bc
       0.43517476 0.43365586 0.02109755 -0.015796216
0002e0 2c 12 14 bf 38 3d 84 3d f7 0d 5a 3e 89 e8 a0 3c
       -0.5784023 0.06456989 0.2129439 0.019642131
0002f0 e1 5b 71 3c c6 31 08 3e 44 05 00 bd 0c c9 fc bc
       0.014731378 0.13300237 -0.03125502 -0.030857585
000300 ba 8a df bd 3d 87 86 bd f2 b3 76 bc 1e 12 07 3e
       -0.10915132 -0.065687634 -0.015057551 0.13190505
000310 7e 3a 30 bc d3 2e a3 3e aa ee e7 3e 6f 82 7a 3d
       -0.010756133 0.31871662 0.45299274 0.061159547
000320 ba 18 30 3d 87 c7 d2 3c 6c c4 77 3d c5 36 5c 3f
       0.04299233 0.025729908 0.060490057 0.8602107
000330 66 47 a6 bd bd 85 ad ba 09 78 78 be 95 a4 9e be
       -0.08119087 -0.001323871 -0.2426454 -0.3098494
000340 10 92 37 bb ba 26 10 3f 9f 15 70 3e fe 4b 53 bf
       -0.0028010644 0.5630909 0.23445748 -0.8253783
000350 ad b5 fa bd 83 8e 84 3e 40 ad 9d bd 6f 66 8a 3e
       -0.12241683 0.25889978 -0.076990604 0.27031276
000360 db 7e a7 3e 8a 22 26 3d aa 97 71 be e0 2b 04 bf
       0.3271397 0.040560283 -0.23593011 -0.5162945
000370 0c 39 0d 3e 39 ce ec be f1 00 a2 3e 88 3c e0 3d
       0.13791293 -0.46251085 0.31641343 0.109490454
000380 ff b5 7c 3e 33 3a 70 be 24 da a5 3b ac ae cf bd
       0.24678801 -0.23459701 0.005061405 -0.10140738
000390 de 24 a2 be 54 3a e2 3d 5e 6f 13 bd 62 a5 9f 3d
       -0.31668752 0.110462815 -0.03599488 0.07795216
0003a0 b0 74 9e 3b 72 5c 45 3d ce bc c1 3d 2a b6 62 3c
       0.0048356876 0.048183866 0.0945984 0.013837377
0003b0 b4 11 f7 bc 5a 8e 2f be 84 ca c7 3c 3c 79 0d 3d
       -0.030159809 -0.17144147 0.02438856 0.034539446
0003c0 4b 24 43 be ff 9e 28 bd 16 d2 74 3d 5c f7 2f 3e
       -0.19056813 -0.041167255 0.059770666 0.17184204
0003d0 40 8c 86 3c a3 1d 30 3e a6 dd eb bd 26 f7 bb bd
       0.016424298 0.17198806 -0.115168855 -0.09177999
0003e0 bc 31 af 3d fa 9b f8 3d 1e db 11 3f 48 f4 c2 3a
       0.08554408 0.12139125 0.5697497 0.0014873827
0003f0 0d 29 f0 3c 10 ec 92 3c 6a c5 40 3d 00 67 f0 bd
       0.02931645 0.017934829 0.04706327 -0.11738396

decoder.embedding.weight_quantized u1 [500, 512]
000000 80 80 80 80 80 80 80 80 80 80 80 80 80 80 80 80
       128 128 128 128 128 128 128 128 128 128 128 128 128 128 128 128
000010 80 80 80 80 80 80 80 80 80 80 80 80 80 80 80 80
       128 128 128 128 128 128 128 128 128 128 128 128 128 128 128 128
000020 80 80 80 80 80 80 80 80 80 80 80 80 80 80 80 80
       128 128 128 128 128 128 128 128 128 128 128 128 128 128 128 128
000030 80 80 80 80 80 80 80 80 80 80 80 80 80 80 80 80
       128 128 128 128 128 128 128 128 128 128 128 128 128 128 128 128
000040 80 80 80 80 80 80 80 80 80 80 80 80 80 80 80 80
       128 128 128 128 128 128 128 128 128 128 128 128 128 128 128 128
000050 80 80 80 80 80 80 80 80 80 80 80 80 80 80 80 80
       128 128 128 128 128 128 128 128 128 128 128 128 128 128 128 128
000060 80 80 80 80 80 80 80 80 80 80 80 80 80 80 80 80
       128 128 128 128 128 128 128 128 128 128 128 128 128 128 128 128
000070 80 80 80 80 80 80 80 80 80 80 80 80 80 80 80 80
       128 128 128 128 128 128 128 128 128 128 128 128 128 128 128 128
000080 80 80 80 80 80 80 80 80 80 80 80 80 80 80 80 80
       128 128 128 128 128 128 128 128 128 128 128 128 128 128 128 128
000090 80 80 80 80 80 80 80 80 80 80 80 80 80 80 80 80
       128 128 128 128 128 128 128 128 128 128 128 128 128 128 128 128
0000a0 80 80 80 80 80 80 80 80 80 80 80 80 80 80 80 80
       128 128 128 128 128 128 128 128 128 128 128 128 128 128 128 128
0000b0 80 80 80 80 80 80 80 80 80 80 80 80 80 80 80 80
       128 128 128 128 128 128 128 128 128 128 128 128 128 128 128 128
0000c0 80 80 80 80 80 80 80 80 80 80 80 80 80 80 80 80
       128 128 128 128 128 128 128 128 128 128 128 128 128 128 128 128
0000d0 80 80 80 80 80 80 80 80 80 80 80 80 80 80 80 80
       128 128 128 128 128 128 128 128 128 128 128 128 128 128 128 128
0000e0 80 80 80 80 80 80 80 80 80 80 80 80 80 80 80 80
       128 128 128 128 128 128 128 128 128 128 128 128 128 128 128 128
0000f0 80 80 80 80 80 80 80 80 80 80 80 80 80 80 80 80
       128 128 128 128 128 128 128 128 128 128 128 128 128 128 128 128

decoder_proj.weight_quantized i1 [512, 512]
000000 f9 0c 00 fc 0b fa 01 08 02 00 02 00 01 fe fa 00
       -7 12 0 -4 11 -6 1 8 2 0 2 0 1 -2 -6 0
000010 00 01 fd 02 06 02 03 06 fd 00 f6 00 fe 03 03 fc
       0 1 -3 2 6 2 3 6 -3 0 -10 0 -2 3 3 -4
000020 07 05 ff fa 00 05 fe fd fb 03 ff fb 03 ff fd 02
       7 5 -1 -6 0 5 -2 -3 -5 3 -1 -5 3 -1 -3 2
000030 03 ff 03 fe f7 fe ff 00 04 fe 00 fe 05 05 03 00
       3 -1 3 -2 -9 -2 -1 0 4 -2 0 -2 5 5 3 0
000040 fe f8 fc 02 05 fd fb fe 00 fe ff 03 fb 07 00 07
       -2 -8 -4 2 5 -3 -5 -2 0 -2 -1 3 -5 7 0 7
000050 f5 fd 09 fd fc fe ff 0b 04 fe 02 09 fc 00 ff fb
       -11 -3 9 -3 -4 -2 -1 11 4 -2 2 9 -4 0 -1 -5
000060 01 02 fe 04 05 06 00 fc 02 03 03 fb 03 fc 01 0b
       1 2 -2 4 5 6 0 -4 2 3 3 -5 3 -4 1 11
000070 0e fb f7 07 fc fe 05 00 0b 04 05 00 03 ff fe fb
       14 -5 -9 7 -4 -2 5 0 11 4 5 0 3 -1 -2 -5
000080 05 ff fd fc fe fa ff 05 04 fd 00 05 01 fc 00 03
       5 -1 -3 -4 -2 -6 -1 5 4 -3 0 5 1 -4 0 3
000090 ff 09 03 ff fe 00 fd fa f8 00 06 ff 03 02 fd 08
       -1 9 3 -1 -2 0 -3 -6 -8 0 6 -1 3 2 -3 8
0000a0 04 f8 09 01 05 00 ff fe fe 04 09 01 fe 03 0a fe
       4 -8 9 1 5 0 -1 -2 -2 4 9 1 -2 3 10 -2
0000b0 04 fe 04 fd fb 05 02 05 fc fd 02 ff 01 fd 02 06
       4 -2 4 -3 -5 5 2 5 -4 -3 2 -1 1 -3 2 6
0000c0 04 f7 fb fc 04 ff 04 02 fd ff fa fc 01 fc ff 02
       4 -9 -5 -4 4 -1 4 2 -3 -1 -6 -4 1 -4 -1 2
0000d0 04 0f 02 ff fe 05 fb fe 04 05 fd 0c 00 f8 0c 03
       4 15 2 -1 -2 5 -5 -2 4 5 -3 12 0 -8 12 3
0000e0 00 fd 00 00 02 03 07 04 05 00 07 09 01 fd f9 f7
       0 -3 0 0 2 3 7 4 5 0 7 9 1 -3 -7 -9
0000f0 02 fc 01 ff 02 01 fd 00 fe f9 fe f7 fd fe ff 06
       2 -4 1 -1 2 1 -3 0 -2 -7 -2 -9 -3 -2 -1 6
